…
[INFO:swift] max_length: 128000
[INFO:swift] response_prefix: ''
[INFO:swift] agent_template: hermes
[INFO:swift] norm_bbox: none
[INFO:swift] Setting ROOT_IMAGE_DIR: None. You can adjust this hyperparameter through the environment variable: `ROOT_IMAGE_DIR`.
[INFO:swift] Setting QWENVL_BBOX_FORMAT: legacy. You can adjust this hyperparameter through the environment variable: `QWENVL_BBOX_FORMAT`.
[INFO:swift] model: Qwen2_5_VLForConditionalGeneration(
  (model): Qwen2_5_VLModel(
    (visual): Qwen2_5_VisionTransformerPretrainedModel(
      (patch_embed): Qwen2_5_VisionPatchEmbed(
        (proj): Conv3d(3, 1280, kernel_size=(2, 14, 14), stride=(2, 14, 14), bias=False)
      )
      (rotary_pos_emb): Qwen2_5_VisionRotaryEmbedding()
      (blocks): ModuleList(
        (0-31): 32 x Qwen2_5_VLVisionBlock(
          (norm1): Qwen2_5_VLRMSNorm((1280,), eps=1e-06)
          (norm2): Qwen2_5_VLRMSNorm((1280,), eps=1e-06)
          (attn): Qwen2_5_VLVisionAttention(
            (qkv): Linear(in_features=1280, out_features=3840, bias=True)
            (proj): Linear(in_features=1280, out_features=1280, bias=True)
          )
          (mlp): Qwen2_5_VLMLP(
            (gate_proj): Linear(in_features=1280, out_features=3420, bias=True)
            (up_proj): Linear(in_features=1280, out_features=3420, bias=True)
            (down_proj): Linear(in_features=3420, out_features=1280, bias=True)
            (act_fn): SiLUActivation()
          )
        )
      )
      (merger): Qwen2_5_VLPatchMerger(
        (ln_q): Qwen2_5_VLRMSNorm((1280,), eps=1e-06)
        (mlp): Sequential(
          (0): Linear(in_features=5120, out_features=5120, bias=True)
          (1): GELU(approximate='none')
          (2): Linear(in_features=5120, out_features=3584, bias=True)
        )
      )
    )
    (language_model): Qwen2_5_VLTextModel(
      (embed_tokens): Embedding(152064, 3584)
      (layers): ModuleList(
        (0-27): 28 x Qwen2_5_VLDecoderLayer(
          (self_attn): Qwen2_5_VLAttention(
            (q_proj): Linear(in_features=3584, out_features=3584, bias=True)
            (k_proj): Linear(in_features=3584, out_features=512, bias=True)
            (v_proj): Linear(in_features=3584, out_features=512, bias=True)
            (o_proj): Linear(in_features=3584, out_features=3584, bias=False)
          )
          (mlp): Qwen2MLP(
            (gate_proj): Linear(in_features=3584, out_features=18944, bias=False)
            (up_proj): Linear(in_features=3584, out_features=18944, bias=False)
            (down_proj): Linear(in_features=18944, out_features=3584, bias=False)
            (act_fn): SiLUActivation()
          )
          (input_layernorm): Qwen2_5_VLRMSNorm((3584,), eps=1e-06)
          (post_attention_layernorm): Qwen2_5_VLRMSNorm((3584,), eps=1e-06)
        )
      )
      (norm): Qwen2_5_VLRMSNorm((3584,), eps=1e-06)
      (rotary_emb): Qwen2_5_VLRotaryEmbedding()
    )
  )
  (lm_head): Linear(in_features=3584, out_features=152064, bias=False)
)
[INFO:swift] Start time of running main: 2026-04-02 12:47:43.648562
[INFO:swift] swift.__version__: 4.0.2
[INFO:swift] request_config: RequestConfig(max_tokens=None, temperature=None, top_k=None, top_p=None, repetition_penalty=None, num_beams=1, stop=[], seed=None, stream=True, logprobs=False, top_logprobs=None, n=1, best_of=None, presence_penalty=0.0, frequency_penalty=0.0, length_penalty=1.0, return_details=False, structured_outputs_regex=None)
…
